…
########################################################################
#      Date:           Thu Dec  6 10:43:58 PST 2018
#    Job ID:           205159.c009
#      User:           u20874
# Resources:           neednodes=1:ppn=2,nodes=1:ppn=2,vmem=92gb,walltime=06:00:00
########################################################################

Loading data
89953
Vocab Size 1145
_________________________________________________________________
Layer (type)                 Output Shape              Param #   
=================================================================
input_1 (InputLayer)         (None, 10)                0         
_________________________________________________________________
embedding_1 (Embedding)      (None, 10, 300)           343500    
_________________________________________________________________
dropout_1 (Dropout)          (None, 10, 300)           0         
_________________________________________________________________
gru_1 (GRU)                  (None, 10, 500)           1201500   
_________________________________________________________________
dropout_2 (Dropout)          (None, 10, 500)           0         
_________________________________________________________________
gru_2 (GRU)                  (None, 10, 500)           1501500   
_________________________________________________________________
dropout_3 (Dropout)          (None, 10, 500)           0         
_________________________________________________________________
time_distributed_1 (TimeDist (None, 10, 1145)          573645    
=================================================================
Total params: 3,620,145
Trainable params: 3,276,645
Non-trainable params: 343,500
_________________________________________________________________
None
Traning Model...
Epoch 1/10

   32/89953 [..............................] - ETA: 2:01:59 - loss: 7.0452
   64/89953 [..............................] - ETA: 1:04:09 - loss: 7.0264
…
